…
in encoder after norm layer : torch.Size([7, 136, 100])\
in encoder after ffn : torch.Size([7, 136, 100])\
in classification head : torch.Size([7, 136, 100])\
in classification head after seq: torch.Size([7, 5])\
after cls_res: torch.Size([7, 5]) \
\
==============================================================================================================\
Layer (type:depth-idx)                                       Output Shape              Param #\
==============================================================================================================\
Transformer                                                  [7, 5]                    --\
\uc0\u9500 \u9472 Linear: 1-1                                                [7, 136, 100]             200\
\uc0\u9500 \u9472 PostionalEncoding: 1-2                                     [7, 136, 100]             --\
\uc0\u9474     \u9492 \u9472 Dropout: 2-1                                          [7, 136, 100]             --\
\uc0\u9500 \u9472 Encoder: 1-3                                               [7, 136, 100]             --\
\uc0\u9474     \u9492 \u9472 ModuleList: 2-2                                       --                        --\
\uc0\u9474     \u9474     \u9492 \u9472 EncoderLayer: 3-1                                [7, 136, 100]             143,812\
\uc0\u9474     \u9474     \u9492 \u9472 EncoderLayer: 3-2                                [7, 136, 100]             143,812\
\uc0\u9500 \u9472 ClassificationHead: 1-4                                    [7, 5]                    --\
\uc0\u9474     \u9492 \u9472 LayerNorm: 2-3                                        [7, 136, 100]             200\
\uc0\u9474     \u9492 \u9472 Sequential: 2-4                                       [7, 5]                    --\
\uc0\u9474     \u9474     \u9492 \u9472 Flatten: 3-3                                     [7, 13600]                --\
\uc0\u9474     \u9474     \u9492 \u9472 Linear: 3-4                                      [7, 512]                  6,963,712\
\uc0\u9474     \u9474     \u9492 \u9472 ReLU: 3-5                                        [7, 512]                  --\
\uc0\u9474     \u9474     \u9492 \u9472 Linear: 3-6                                      [7, 256]                  131,328\
\uc0\u9474     \u9474     \u9492 \u9472 Linear: 3-7                                      [7, 5]                    1,285\
==============================================================================================================\
Total params: 7,384,349\
Trainable params: 7,384,349\
Non-trainable params: 0\
Total mult-adds (M): 51.68\
==============================================================================================================\
Input size (MB): 0.00\
Forward/backward pass size (MB): 20.03\
Params size (MB): 29.54\
…
